…
      "latent_norm_reg_weight": "N/A",
      "ema": true,
      "ema_decay": 0.9999,
      "ema_start": 20000
    }
  }
}
[INFO] 2021-03-27 00:35:14 > Load train datasets...
[INFO] 2021-03-27 00:35:18 > Train dataset size : 1281167
[INFO] 2021-03-27 00:35:18 > Load valid datasets...
[INFO] 2021-03-27 00:35:18 > Eval dataset size : 50000
[INFO] 2021-03-27 00:35:18 > Build model...
[INFO] 2021-03-27 00:35:19 > Modules are located on models.big_resnet.
[INFO] 2021-03-27 00:35:28 > Prepare EMA for G with decay of 0.9999.
[INFO] 2021-03-27 00:35:29 > Number of parameters: 70433988
[INFO] 2021-03-27 00:35:29 > Generator(
  (linear0): Linear(in_features=20, out_features=24576, bias=True)
  (shared): Embedding(1000, 128)
  (blocks): ModuleList(
    (0): ModuleList(
      (0): GenBlock(
        (bn1): ConditionalBatchNorm2d_for_skip_and_shared(
          (bn): BatchNorm2d(1536, eps=0.0001, momentum=0.1, affine=False, track_running_stats=True)
          (gain): Linear(in_features=148, out_features=1536, bias=False)
          (bias): Linear(in_features=148, out_features=1536, bias=False)
        )
        (bn2): ConditionalBatchNorm2d_for_skip_and_shared(
          (bn): BatchNorm2d(1536, eps=0.0001, momentum=0.1, affine=False, track_running_stats=True)
          (gain): Linear(in_features=148, out_features=1536, bias=False)
          (bias): Linear(in_features=148, out_features=1536, bias=False)
        )
        (activation): ReLU(inplace=True)
        (conv2d0): Conv2d(1536, 1536, kernel_size=(1, 1), stride=(1, 1))
        (conv2d1): Conv2d(1536, 1536, kernel_size=(3, 3), stride=(1, 1), padding=(1, 1))
        (conv2d2): Conv2d(1536, 1536, kernel_size=(3, 3), stride=(1, 1), padding=(1, 1))
      )
    )
    (1): ModuleList(
      (0): GenBlock(
        (bn1): ConditionalBatchNorm2d_for_skip_and_shared(
          (bn): BatchNorm2d(1536, eps=0.0001, momentum=0.1, affine=False, track_running_stats=True)
          (gain): Linear(in_features=148, out_features=1536, bias=False)
          (bias): Linear(in_features=148, out_features=1536, bias=False)
        )
        (bn2): ConditionalBatchNorm2d_for_skip_and_shared(
          (bn): BatchNorm2d(768, eps=0.0001, momentum=0.1, affine=False, track_running_stats=True)
          (gain): Linear(in_features=148, out_features=768, bias=False)
          (bias): Linear(in_features=148, out_features=768, bias=False)
        )
        (activation): ReLU(inplace=True)
        (conv2d0): Conv2d(1536, 768, kernel_size=(1, 1), stride=(1, 1))
        (conv2d1): Conv2d(1536, 768, kernel_size=(3, 3), stride=(1, 1), padding=(1, 1))
        (conv2d2): Conv2d(768, 768, kernel_size=(3, 3), stride=(1, 1), padding=(1, 1))
      )
    )
    (2): ModuleList(
      (0): GenBlock(
        (bn1): ConditionalBatchNorm2d_for_skip_and_shared(
          (bn): BatchNorm2d(768, eps=0.0001, momentum=0.1, affine=False, track_running_stats=True)
          (gain): Linear(in_features=148, out_features=768, bias=False)
          (bias): Linear(in_features=148, out_features=768, bias=False)
        )
        (bn2): ConditionalBatchNorm2d_for_skip_and_shared(
          (bn): BatchNorm2d(384, eps=0.0001, momentum=0.1, affine=False, track_running_stats=True)
          (gain): Linear(in_features=148, out_features=384, bias=False)
          (bias): Linear(in_features=148, out_features=384, bias=False)
        )
        (activation): ReLU(inplace=True)
        (conv2d0): Conv2d(768, 384, kernel_size=(1, 1), stride=(1, 1))
        (conv2d1): Conv2d(768, 384, kernel_size=(3, 3), stride=(1, 1), padding=(1, 1))
        (conv2d2): Conv2d(384, 384, kernel_size=(3, 3), stride=(1, 1), padding=(1, 1))
      )
    )
    (3): ModuleList(
      (0): GenBlock(
        (bn1): ConditionalBatchNorm2d_for_skip_and_shared(
          (bn): BatchNorm2d(384, eps=0.0001, momentum=0.1, affine=False, track_running_stats=True)
          (gain): Linear(in_features=148, out_features=384, bias=False)
          (bias): Linear(in_features=148, out_features=384, bias=False)
        )
        (bn2): ConditionalBatchNorm2d_for_skip_and_shared(
          (bn): BatchNorm2d(192, eps=0.0001, momentum=0.1, affine=False, track_running_stats=True)
          (gain): Linear(in_features=148, out_features=192, bias=False)
          (bias): Linear(in_features=148, out_features=192, bias=False)
        )
        (activation): ReLU(inplace=True)
        (conv2d0): Conv2d(384, 192, kernel_size=(1, 1), stride=(1, 1))
        (conv2d1): Conv2d(384, 192, kernel_size=(3, 3), stride=(1, 1), padding=(1, 1))
        (conv2d2): Conv2d(192, 192, kernel_size=(3, 3), stride=(1, 1), padding=(1, 1))
      )
    )
    (4): ModuleList(
      (0): Self_Attn(
        (conv1x1_theta): Conv2d(192, 24, kernel_size=(1, 1), stride=(1, 1), bias=False)
        (conv1x1_phi): Conv2d(192, 24, kernel_size=(1, 1), stride=(1, 1), bias=False)
        (conv1x1_g): Conv2d(192, 96, kernel_size=(1, 1), stride=(1, 1), bias=False)
        (conv1x1_attn): Conv2d(96, 192, kernel_size=(1, 1), stride=(1, 1), bias=False)
        (maxpool): MaxPool2d(kernel_size=2, stride=2, padding=0, dilation=1, ceil_mode=False)
        (softmax): Softmax(dim=-1)
      )
    )
    (5): ModuleList(
      (0): GenBlock(
        (bn1): ConditionalBatchNorm2d_for_skip_and_shared(
          (bn): BatchNorm2d(192, eps=0.0001, momentum=0.1, affine=False, track_running_stats=True)
          (gain): Linear(in_features=148, out_features=192, bias=False)
          (bias): Linear(in_features=148, out_features=192, bias=False)
        )
        (bn2): ConditionalBatchNorm2d_for_skip_and_shared(
          (bn): BatchNorm2d(96, eps=0.0001, momentum=0.1, affine=False, track_running_stats=True)
          (gain): Linear(in_features=148, out_features=96, bias=False)
          (bias): Linear(in_features=148, out_features=96, bias=False)
        )
        (activation): ReLU(inplace=True)
        (conv2d0): Conv2d(192, 96, kernel_size=(1, 1), stride=(1, 1))
        (conv2d1): Conv2d(192, 96, kernel_size=(3, 3), stride=(1, 1), padding=(1, 1))
        (conv2d2): Conv2d(96, 96, kernel_size=(3, 3), stride=(1, 1), padding=(1, 1))
      )
    )
  )
  (bn4): BatchNorm2d(96, eps=0.0001, momentum=0.1, affine=True, track_running_stats=True)
  (activation): ReLU(inplace=True)
  (conv2d5): Conv2d(96, 3, kernel_size=(3, 3), stride=(1, 1), padding=(1, 1))
  (tanh): Tanh()
)
[INFO] 2021-03-27 00:35:29 > Number of parameters: 87982370
[INFO] 2021-03-27 00:35:29 > Discriminator(
  (blocks): ModuleList(
    (0): ModuleList(
      (0): DiscOptBlock(
        (conv2d0): Conv2d(3, 96, kernel_size=(1, 1), stride=(1, 1))
        (conv2d1): Conv2d(3, 96, kernel_size=(3, 3), stride=(1, 1), padding=(1, 1))
        (conv2d2): Conv2d(96, 96, kernel_size=(3, 3), stride=(1, 1), padding=(1, 1))
        (activation): ReLU(inplace=True)
        (average_pooling): AvgPool2d(kernel_size=2, stride=2, padding=0)
      )
    )
    (1): ModuleList(
      (0): Self_Attn(
        (conv1x1_theta): Conv2d(96, 12, kernel_size=(1, 1), stride=(1, 1), bias=False)
        (conv1x1_phi): Conv2d(96, 12, kernel_size=(1, 1), stride=(1, 1), bias=False)
        (conv1x1_g): Conv2d(96, 48, kernel_size=(1, 1), stride=(1, 1), bias=False)
        (conv1x1_attn): Conv2d(48, 96, kernel_size=(1, 1), stride=(1, 1), bias=False)
        (maxpool): MaxPool2d(kernel_size=2, stride=2, padding=0, dilation=1, ceil_mode=False)
        (softmax): Softmax(dim=-1)
      )
    )
    (2): ModuleList(
      (0): DiscBlock(
        (activation): ReLU(inplace=True)
        (conv2d0): Conv2d(96, 192, kernel_size=(1, 1), stride=(1, 1))
        (conv2d1): Conv2d(96, 192, kernel_size=(3, 3), stride=(1, 1), padding=(1, 1))
        (conv2d2): Conv2d(192, 192, kernel_size=(3, 3), stride=(1, 1), padding=(1, 1))
        (average_pooling): AvgPool2d(kernel_size=2, stride=2, padding=0)
      )
    )
    (3): ModuleList(
      (0): DiscBlock(
        (activation): ReLU(inplace=True)
        (conv2d0): Conv2d(192, 384, kernel_size=(1, 1), stride=(1, 1))
        (conv2d1): Conv2d(192, 384, kernel_size=(3, 3), stride=(1, 1), padding=(1, 1))
        (conv2d2): Conv2d(384, 384, kernel_size=(3, 3), stride=(1, 1), padding=(1, 1))
        (average_pooling): AvgPool2d(kernel_size=2, stride=2, padding=0)
      )
    )
    (4): ModuleList(
      (0): DiscBlock(
        (activation): ReLU(inplace=True)
        (conv2d0): Conv2d(384, 768, kernel_size=(1, 1), stride=(1, 1))
        (conv2d1): Conv2d(384, 768, kernel_size=(3, 3), stride=(1, 1), padding=(1, 1))
        (conv2d2): Conv2d(768, 768, kernel_size=(3, 3), stride=(1, 1), padding=(1, 1))
        (average_pooling): AvgPool2d(kernel_size=2, stride=2, padding=0)
      )
    )
    (5): ModuleList(
      (0): DiscBlock(
        (activation): ReLU(inplace=True)
        (conv2d0): Conv2d(768, 1536, kernel_size=(1, 1), stride=(1, 1))
        (conv2d1): Conv2d(768, 1536, kernel_size=(3, 3), stride=(1, 1), padding=(1, 1))
        (conv2d2): Conv2d(1536, 1536, kernel_size=(3, 3), stride=(1, 1), padding=(1, 1))
        (average_pooling): AvgPool2d(kernel_size=2, stride=2, padding=0)
      )
    )
    (6): ModuleList(
      (0): DiscBlock(
        (activation): ReLU(inplace=True)
        (conv2d1): Conv2d(1536, 1536, kernel_size=(3, 3), stride=(1, 1), padding=(1, 1))
        (conv2d2): Conv2d(1536, 1536, kernel_size=(3, 3), stride=(1, 1), padding=(1, 1))
        (average_pooling): AvgPool2d(kernel_size=2, stride=2, padding=0)
      )
    )
  )
  (activation): ReLU(inplace=True)
  (linear1): Linear(in_features=1536, out_features=1, bias=True)
  (embedding): Embedding(1000, 1536)
)
[INFO] 2021-03-27 00:35:30 > Start training....
[INFO] 2021-03-27 00:38:56 > Step:     100 Progress: 0.1% Elapsed: 0:03:26 temperature: no ada_p: No Discriminator_loss: 1.69875 Generator_loss: 0.930652 
[INFO] 2021-03-27 00:42:11 > Step:     200 Progress: 0.1% Elapsed: 0:06:41 temperature: no ada_p: No Discriminator_loss: 2.04716 Generator_loss: -0.0499056 
[INFO] 2021-03-27 00:45:17 > Step:     300 Progress: 0.1% Elapsed: 0:09:47 temperature: no ada_p: No Discriminator_loss: 1.81258 Generator_loss: -0.297099 
…
